…
042.867]
(c) 2020 Microsoft Corporation. All rights reserved.

D:\topDeskTop\DeskTop\zolzac\darknet\darknet-master\build\darknet\x64>darknet.exe detector map train_data/myObjData.data train_data/yolov3-tiny.cfg train_data/weights/train_yolov3-tiny_1000.weights
 CUDA-version: 11020 (11020), cuDNN: 8.0.5, CUDNN_HALF=1, GPU count: 1
 CUDNN_HALF=1
 OpenCV version: 3.2.0
 0 : compute_capability = 500, cudnn_half = 0, GPU: GeForce GTX 950M
net.optimized_memory = 0
mini_batch = 1, batch = 1, time_steps = 1, train = 0
   layer   filters  size/strd(dil)      input                output
   0 conv     24       3 x 3/ 1    416 x 416 x   3 ->  416 x 416 x  24 0.224 BF
   1 max                2x 2/ 2    416 x 416 x  24 ->  208 x 208 x  24 0.004 BF
   2 conv     24       3 x 3/ 1    208 x 208 x  24 ->  208 x 208 x  24 0.449 BF
   3 max                2x 2/ 2    208 x 208 x  24 ->  104 x 104 x  24 0.001 BF
   4 conv     24       3 x 3/ 1    104 x 104 x  24 ->  104 x 104 x  24 0.112 BF
   5 max                2x 2/ 2    104 x 104 x  24 ->   52 x  52 x  24 0.000 BF
   6 conv     24       3 x 3/ 1     52 x  52 x  24 ->   52 x  52 x  24 0.028 BF
   7 max                2x 2/ 2     52 x  52 x  24 ->   26 x  26 x  24 0.000 BF
   8 conv     24       3 x 3/ 1     26 x  26 x  24 ->   26 x  26 x  24 0.007 BF
   9 max                2x 2/ 2     26 x  26 x  24 ->   13 x  13 x  24 0.000 BF
  10 conv     24       3 x 3/ 1     13 x  13 x  24 ->   13 x  13 x  24 0.002 BF
  11 max                2x 2/ 1     13 x  13 x  24 ->   13 x  13 x  24 0.000 BF
  12 conv     24       3 x 3/ 1     13 x  13 x  24 ->   13 x  13 x  24 0.002 BF
  13 conv     24       1 x 1/ 1     13 x  13 x  24 ->   13 x  13 x  24 0.000 BF
  14 conv     24       3 x 3/ 1     13 x  13 x  24 ->   13 x  13 x  24 0.002 BF
  15 conv     24       1 x 1/ 1     13 x  13 x  24 ->   13 x  13 x  24 0.000 BF
  16 yolo
[yolo] params: iou loss: mse (2), iou_norm: 0.75, obj_norm: 1.00, cls_norm: 1.00, delta_norm: 1.00, scale_x_y: 1.00
  17 route  13                                     ->   13 x  13 x  24
  18 conv     24       1 x 1/ 1     13 x  13 x  24 ->   13 x  13 x  24 0.000 BF
  19 upsample                 2x    13 x  13 x  24 ->   26 x  26 x  24
  20 route  19 8                                   ->   26 x  26 x  48
  21 conv     24       3 x 3/ 1     26 x  26 x  48 ->   26 x  26 x  24 0.014 BF
  22 conv     24       1 x 1/ 1     26 x  26 x  24 ->   26 x  26 x  24 0.001 BF
  23 yolo
[yolo] params: iou loss: mse (2), iou_norm: 0.75, obj_norm: 1.00, cls_norm: 1.00, delta_norm: 1.00, scale_x_y: 1.00
Total BFLOPS 0.846
avg_outputs = 293722
 Allocate additional workspace_size = 0.00 MB
Loading weights from train_data/weights/train_yolov3-tiny_1000.weights...
 seen 64, trained: 64 K-images (1 Kilo-batches_64)
Done! Loaded 24 layers from weights-file
…
